Code/denoising_model_16a_1.pth (torch, 153583 bytes, 7 tensors)

encoder.0.weight f4 [32, 1, 3, 3]
000000 a4 a2 c5 bd fe 8e a7 b9 c0 d7 6d bd b6 a0 d0 3c
       -0.09650162 -0.0003195926 -0.058067083 0.025467258
000010 11 29 ef bb 22 5a 9d bd 9a 60 a5 3e 18 96 59 bd
       -0.0072985967 -0.07683207 0.32300264 -0.053121656
000020 61 c0 85 3e 21 6a 1b be 24 9c c8 3d 4b 91 02 3e
       0.26123336 -0.15177204 0.097954065 0.12750737
000030 ba 43 9a 3e b4 3f 3d be f4 73 a9 3d 61 f1 55 3c
       0.30129796 -0.18481332 0.082740694 0.0130580375
000040 96 74 38 3e 25 e3 a2 3e 45 f9 3a be 64 98 b5 3d
       0.18013224 0.31813923 -0.18259151 0.08866957
000050 8d 32 e1 3d 4e 0e 5a 3d 04 53 2e 3c 53 0b b5 bc
       0.1099597 0.0532363 0.01063991 -0.022100126
000060 ff 5e 85 be 05 e6 73 3e 0f 97 89 3e bf 98 3f 3e
       -0.2604904 0.23818214 0.2687306 0.18710612
000070 f0 37 b2 3d c0 70 0e be e5 2d 6b 3e 37 85 37 be
       0.087020755 -0.13910198 0.22966726 -0.17921911
000080 55 cf 46 3e a3 de 85 3e 4f e2 96 3e 94 93 b6 3e
       0.19415028 0.2614642 0.29469535 0.35659468
000090 dc fb a9 bc 4d 24 d2 3e e1 fa 39 bd 5f f2 bb 3d
       -0.020749979 0.4104332 -0.045405272 0.09177088
0000a0 0f 7b e7 bd 03 1d 46 be d2 6e 4d 3e e9 86 08 be
       -0.113027684 -0.19347005 0.20061806 -0.13332714
0000b0 0c 1f 35 be 5f 27 b1 3d 9a 22 38 be c8 ef ea bd
       -0.17687625 0.086500876 -0.1798195 -0.11471516
0000c0 62 3d 5a 3d 99 14 51 be a6 ce 03 be b9 4c 1d be
       0.053281195 -0.20418014 -0.12871799 -0.15361299
0000d0 6f de e7 bd e0 95 b6 3e 89 67 05 3e ac ae cd 3d
       -0.11321723 0.3566122 0.13027777 0.10043082
0000e0 87 f3 9b 3e ee 3e 85 3e ad 12 93 be 16 a1 6c 3e
       0.30459234 0.26024574 -0.28725186 0.23108324
0000f0 eb 7a 5a bd fc fe f1 3d e9 5e 66 3d 6d 11 a9 bd
       -0.05333988 0.118162125 0.056242857 -0.08255277
000100 a3 9d 59 b9 49 d3 2f be 07 5a 30 3e fa 56 48 3e
       -0.00020753457 -0.17170443 0.17221843 0.19564429
000110 5c af 0f 3e a0 b6 c9 3c 64 ce 47 3e 39 65 79 3e
       0.14031738 0.024623215 0.19512326 0.2435502
000120 e3 2a f4 3c 94 bb a1 be c5 c1 4c 3e e8 d1 4d 3e
       0.029805606 -0.31588423 0.19995792 0.20099604
000130 db 1a c3 3d 60 de 1d be 60 a0 1a 3e bd df d7 3d
       0.09526607 -0.1541686 0.1510024 0.105407216
000140 40 5e 12 3e f3 5f 34 3d 30 18 c8 3d f9 ea 9b 3e
       0.14293766 0.044036817 0.097702384 0.30452707
000150 03 6c 68 3d 7a d6 82 3e 91 9c 52 3e 4e d2 31 3e
       0.056743633 0.25554258 0.20567538 0.17365381
000160 43 f2 73 3e c0 82 66 3b 80 45 a9 be 3c c7 b8 bd
       0.23822884 0.0035173148 -0.33060837 -0.09022376
000170 00 d9 a4 bb 58 4d 4b be 08 64 9e be 48 b3 27 be
       -0.005030751 -0.19853723 -0.30935693 -0.16376984
000180 76 7c ee bd 72 df 3d 3e e8 02 94 be 7c 4e 1e be
       -0.11644833 0.18542269 -0.28908467 -0.15459627
000190 07 75 f1 3e 43 81 e6 3d 6f 1c 7b 3e 64 2d 5e 3e
       0.47159597 0.112551235 0.24522565 0.21697003
0001a0 62 74 6f 3e b3 3f 9c 3d 26 10 36 3e 62 bf 01 bd
       0.2338424 0.07629337 0.17779598 -0.031676657
0001b0 ab ae 03 be 23 b2 16 3c 75 eb 08 3d 34 f2 8e be
       -0.128596 0.009197745 0.033427674 -0.2791916
0001c0 da aa e4 bb d3 e1 ba bd e1 1f 6a 3e 68 74 dc 3d
       -0.006978375 -0.09125104 0.22863723 0.1076439
0001d0 02 19 74 be 67 7f c1 bc d2 22 5f be 4e f7 70 3e
       -0.23837665 -0.02362032 -0.21790627 0.23531839
0001e0 b1 2a 8e 3e 94 31 5e be b6 d5 b7 bc 03 cc 6d be
       0.27766946 -0.216986 -0.022440773 -0.23222356
0001f0 96 39 de 3d a7 8c b0 bd 0d 70 7e 3e c8 63 22 be
       0.108508274 -0.08620577 0.24847431 -0.15858376
000200 d2 17 ee bd a0 9c 0d 3e 2f c7 0d be 6b 92 84 3d
       -0.11625637 0.13829279 -0.13845514 0.064732395
000210 0c f5 ef 3d d2 fe 88 be 08 16 2e 3e cb ef 97 be
       0.11716661 -0.26756912 0.17000592 -0.29675135
000220 a8 29 5c 3d a4 f9 89 bd 38 8d 4a 3d 68 3a 2e be
       0.053750664 -0.06737068 0.049451083 -0.17014468
000230 e0 49 09 be b6 ba e9 bd d0 5a c9 3c e0 f3 6b bd
       -0.13407087 -0.114125654 0.024579436 -0.057605624
000240 e4 9b 03 bc ad 11 65 3e 1d 46 75 3e 22 f7 24 be
       -0.008032773 0.22370024 0.23952527 -0.16109899
000250 f8 00 c3 3d 21 a3 9d 3e 3f 64 81 3e 41 ab 9e bd
       0.09521669 0.3078852 0.25271794 -0.07747508
000260 9b c3 ed bd 80 db 8d be 9d 48 5a be df da 4a be
       -0.116095744 -0.27706528 -0.21316762 -0.19810055
000270 a4 63 5b 3e 4b 66 5c be e0 5c e1 3d 3c db 16 3e
       0.21424729 -0.21523397 0.110040426 0.14732069
000280 bf 20 8a 3e ce 41 ec 3c 41 07 78 3d 92 62 70 3e
       0.26978108 0.028839972 0.060553793 0.23475102
000290 2b 00 3f be ee 00 02 be ea 86 d8 3d bc 24 bf bd
       -0.18652408 -0.12695667 0.10572608 -0.093331784
0002a0 96 56 e6 3d e3 83 ae 3c 8c 78 93 3e 8c c8 b6 bd
       0.11246984 0.021303123 0.28802907 -0.0892497
0002b0 c9 81 aa 3d 84 f6 65 3e 7b 57 ca 3d 43 ac 36 be
       0.08325536 0.2245732 0.09879967 -0.1783915
0002c0 14 04 42 3e 81 1c 32 3e 2b a5 75 be 57 2b 47 3e
       0.18946868 0.17393686 -0.23988788 0.19450127
0002d0 8e 87 e3 bd 58 36 92 3e 20 f2 3d 3c e0 39 1d 3e
       -0.111098394 0.28557086 0.011593372 0.15354109
0002e0 ad 2f a4 bc d9 02 0e be 8b a0 71 be 18 0c aa 3d
       -0.020042265 -0.13868274 -0.23596399 0.08303088
0002f0 68 68 27 3e 10 84 44 be ff a3 26 be 2d 4a 12 3e
       0.16348422 -0.19191003 -0.16273497 0.14286108
000300 49 fa 3e 3e 18 4f 43 3e 6d 7c 6a be 9d 25 89 be
       0.18650164 0.1907314 -0.22899027 -0.2678651
000310 b5 ce e0 bd cd de 8b bd 5f d8 18 be d7 f3 8b 3d
       -0.10976926 -0.06829605 -0.14926289 0.06833618
000320 15 61 b2 3e 03 24 3c be e1 d4 1c be 45 50 37 3e
       0.34839693 -0.18373112 -0.15315582 0.17901714
000330 80 c4 5f be 58 26 50 be a5 dd 08 be 80 7c 21 3d
       -0.21852303 -0.20327127 -0.133658 0.039425373
000340 df 9b 00 be c7 7e 8b 3e 27 7c a3 bd 3f e0 92 3e
       -0.1255946 0.2724516 -0.079826646 0.2868671
000350 69 cd ad 3e 2e 07 e3 bd b6 8f 48 be a0 35 77 3e
       0.33945778 -0.11085354 -0.19586071 0.2414155
000360 70 da 21 be 5a 30 2e bc 2d 15 06 be d3 64 20 3e
       -0.15805984 -0.010631645 -0.13094015 0.15663461
000370 93 9f 28 3e 7d 45 b7 3e ee af 03 be 8a 24 98 3e
       0.16467123 0.35795203 -0.1286008 0.29715377
000380 3c 52 53 3e c4 31 0e bb d1 9f c2 bd c4 3f e4 bd
       0.20636839 -0.0021697143 -0.09503139 -0.11144975
000390 b2 8b df bd 13 d7 b8 3e e6 e6 5f 3e 24 82 f8 3a
       -0.10915317 0.3610159 0.21865425 0.0018959683
0003a0 99 90 1c 3e fa be 12 be 34 cf 32 be bd a0 11 3e
       0.15289535 -0.14330664 -0.17461854 0.14221473
0003b0 a5 29 61 3d 91 0f 8e 3e d3 40 9a 3e be 3a 23 bd
       0.054971356 0.2774625 0.30127582 -0.039850943
0003c0 b3 d2 66 3e 52 6d 4a 3e c0 ee b0 3d ef b0 0d be
       0.22541313 0.19768265 0.08639288 -0.13837026
0003d0 16 9f c4 3d 02 0d a7 3e 15 bf 3f 3b 63 11 97 bc
       0.09600656 0.32627112 0.002925818 -0.018440908
0003e0 6d f8 2c be f2 32 f7 bd 32 b0 4e bd db 39 af 3e
       -0.16891642 -0.12070264 -0.050461 0.34223828
0003f0 71 38 48 3e f0 ba db 3c 95 42 45 3e 86 e7 47 be
       0.1955278 0.026822537 0.1926368 -0.19521913

encoder.0.bias f4 [32]
000000 56 b1 43 bd 86 91 25 3e 79 12 70 3e 2e 84 80 be
       -0.047776543 0.16168794 0.23444547 -0.25100845
000010 57 89 b2 3d ca bc 13 3e f4 d3 90 be e8 f4 ea bd
       0.08717602 0.14427486 -0.28286707 -0.114724934
000020 7d 34 a0 be a1 19 c4 bc c2 06 8e be 30 5b 58 3b
       -0.31290045 -0.023938002 -0.2773953 0.0033013336
000030 c3 88 d2 3d 71 e7 76 3e dd be b5 3e cb 35 8b be
       0.102799915 0.24111725 0.3549718 -0.27189478
000040 ac 12 39 3e 18 b3 96 3e 6d 21 8a 3e 11 bc 8f be
       0.18073529 0.29433513 0.26978627 -0.2807317
000050 68 12 94 3e 94 5c 85 3e ea 3e bb 3e d9 5c 48 be
       0.28920293 0.26047194 0.36571437 -0.19566669
000060 56 d4 67 3e aa 5f 5c bd 4b 24 4d 3e b9 d6 cd bd
       0.22639593 -0.05380217 0.20033376 -0.10050721
000070 e1 06 62 be 1e 5e 3a be 6f ea 79 3d 65 dc 04 be
       -0.22072937 -0.18199965 0.06101459 -0.12974699

encoder.3.weight f4 [64, 32, 3, 3]
000000 ef cd 79 bd 0b 8f 34 3d 56 59 af 3c 5c 35 98 3a
       -0.06098741 0.04408173 0.021404903 0.0011612582
000010 40 6c 48 bc 48 21 78 bd 96 a3 79 3b a5 34 4c 3d
       -0.01223284 -0.060578614 0.003809189 0.049854893
000020 06 37 28 bc 82 47 67 bd 97 ca fc bc 53 54 27 bc
       -0.010267025 -0.05646468 -0.030858321 -0.010212976
000030 de 0d f2 bc cf 79 fc bb d2 b5 51 bd ea 65 25 bc
       -0.029547628 -0.0077049504 -0.051198788 -0.010095099
000040 48 83 cd bc c5 19 41 bd 4a d7 16 bb cf 9e dd 3c
       -0.025087014 -0.047143716 -0.0023016506 0.027053265
000050 0d ed 39 3d ef f7 fc bc 76 a7 f6 bc 56 cc 57 3d
       0.045392085 -0.030879943 -0.030109148 0.052685104
000060 30 28 53 3d d2 4c cc 3c 55 4d 7a 3c 15 79 0c 3d
       0.051551998 0.024938975 0.015277226 0.03429516
000070 6f a2 1f bd 71 8d 39 bd 82 5c eb 3c 5f 92 eb bb
       -0.038973268 -0.045300905 0.028730635 -0.0071890797
000080 30 44 05 3c 07 07 82 bc 37 e3 7d 3c 2f b4 e5 b9
       0.008133933 -0.015872492 0.015496067 -0.0004381253
000090 ea 36 31 bc db 03 40 3d 3b c9 5c bd 62 a4 4f 3d
       -0.010816315 0.046878677 -0.053902846 0.050693877
0000a0 ab 4e 09 bd 51 42 41 3d ed a5 e2 3c 79 f1 73 bd
       -0.03352229 0.047182385 0.02766701 -0.05955646
0000b0 c6 92 56 3c 9c 01 a7 3c c7 9d 62 bd 68 75 24 bd
       0.013096517 0.02038651 -0.05532625 -0.04015103
0000c0 a3 8d bd 3b 55 2f 01 3d 02 eb 00 bd a7 cb 50 bd
       0.0057847067 0.03153928 -0.03147412 -0.050975468
0000d0 9d 12 62 bd 41 c9 8a 3c 15 63 6d bd f7 1b c7 3c
       -0.055193532 0.016941668 -0.05795582 0.024305327
0000e0 b1 b4 4b 3c 75 88 2d bd b6 8f 46 bd 6d 3e 70 bd
       0.012433217 -0.042366464 -0.048476897 -0.058653284
0000f0 39 35 f7 3c 63 b5 1d bd 83 33 75 bc 18 30 20 3b
       0.030176746 -0.038503062 -0.014965895 0.0024442729
000100 74 71 dc bc 49 f3 ca bc 04 f4 cd bc a4 5b 77 3c
       -0.026909567 -0.02477421 -0.02514077 0.015097532
000110 cc 2b 92 bc 71 27 55 bd 87 8f 27 3d 57 b4 31 3d
       -0.01784315 -0.052039567 0.040908363 0.043384876
000120 34 9a a3 bc 5c 8f 24 3d d0 08 43 bb 20 f1 14 3c
       -0.01997099 0.04017578 -0.0029759891 0.009090692
000130 af 76 27 bd 20 a7 78 3c 44 0e 4e bd ad b0 2f 3b
       -0.04088467 0.015176564 -0.050306574 0.0026808188
000140 67 cc 50 bd 42 bd f8 bb 11 27 75 bd 9f 61 b7 3c
       -0.050976183 -0.0075909207 -0.05985171 0.022385417
000150 a7 89 0e 3d 55 c0 28 3d 38 74 47 3d 16 cc 3c bd
       0.034799244 0.041199047 0.04869482 -0.04609307
000160 75 36 12 3d 01 54 f6 3c 1c b9 15 bc a7 37 18 bd
       0.035696466 0.030069353 -0.009138372 -0.03716245
000170 98 82 b3 bc 04 81 ce bc 7b ad 69 3d 84 17 1e 3c
       -0.021912858 -0.025208004 0.05705021 0.009649161
000180 52 ba cc 3c 60 e0 a2 3a 6c da 1f bd 41 43 37 3d
       0.024991188 0.0012426488 -0.039026663 0.044741873
000190 37 ad 0d 3d 98 0f 2f bd 29 6e 8f bc 2c 47 47 bd
       0.03458902 -0.04273948 -0.017508583 -0.04865186
0001a0 ea 6b 21 3c 21 f3 31 bc 75 6e 8d bb 2b 69 2f 3d
       0.009852389 -0.010861189 -0.004316146 0.042824905
0001b0 89 7f f5 bc a2 e8 09 bd 52 a0 03 bd f9 1d 7c bd
       -0.02996804 -0.03366912 -0.032135315 -0.06155202
0001c0 7d 67 95 3c 73 d6 c4 3c 65 72 0f 3d e3 b4 3d bd
       0.018237824 0.024028039 0.035021205 -0.046315085
0001d0 ad 72 34 bd ca 0d 7d bc 4a 22 b2 bc f6 fe 4d bd
       -0.044054676 -0.015445182 -0.021744866 -0.050291978
0001e0 30 2d b4 bc 91 d1 33 bd 2e cf a7 bc fa 0e e9 bc
       -0.021994203 -0.04390103 -0.020484533 -0.028449524
0001f0 93 81 c4 3c fe 2b da 3c 10 52 25 bd 4d f3 60 bd
       0.023987567 0.026632305 -0.040361464 -0.05491953
000200 b9 79 b5 39 88 ad 26 3c 9d ff 03 3c 2f 21 6e 3c
       0.000346137 0.010173209 0.008056548 0.014534279
000210 8a c2 c7 3a 62 84 be 3c 9a 67 4b 3d f8 1a 44 bd
       0.0015240472 0.023256484 0.04965935 -0.047877282
000220 aa 85 bf 3c 2c ac 6b 3c f9 1e 22 3d 79 ac 6f 3d
       0.023379166 0.014384311 0.03958032 0.058514092
000230 68 d6 1f bc e4 23 68 3c bc ce 46 3c 11 2a 35 bd
       -0.009755708 0.014168713 0.01213425 -0.04422957
000240 f8 b2 3e 3d 33 74 65 bd 10 61 0e 3d 02 8f 2a bd
       0.046557397 -0.05601902 0.034760535 -0.04164029
000250 07 cc 51 bd f7 0d 80 3c b6 48 2f bd e1 33 db 3c
       -0.051219966 0.015631659 -0.042793952 0.026758136
000260 c8 ff 00 bd 06 b3 7a bc cf 44 2a 3d 0e af ee bc
       -0.031493932 -0.015301472 0.041569527 -0.029136207
000270 40 13 21 3c 6f c2 ea bc 73 e3 2a bd ff 8d 59 3b
       0.00983125 -0.028657166 -0.04172082 0.0033196209
000280 32 8f 81 bd ac 37 ff 3c 8e ad c9 b9 a8 b1 06 3d
       -0.063261405 0.031154476 -0.00038467016 0.03288427
000290 2a cb 12 bd 54 ba 31 bd 91 d6 40 3d 60 17 5c 3c
       -0.035838284 -0.043390587 0.047079626 0.013433307
0002a0 cc 93 ca 3c 4f 9a 66 3b d8 2e 10 bd 55 94 fe 3c
       0.024728678 0.003518719 -0.035200924 0.03107659
0002b0 73 66 35 bd ad 1d 68 bc 8f 4b 56 3d a4 d4 34 bc
       -0.044287156 -0.0141672315 0.052318152 -0.011037026
0002c0 e5 ef fe bc a1 b6 26 3d b6 39 69 3c 23 a7 4a bd
       -0.03112025 0.040701512 0.014234951 -0.0494758
0002d0 17 66 bc bc d5 db 85 bc ea 5b 44 bc 18 08 2e 3d
       -0.022997899 -0.016340176 -0.011984805 0.042488188
0002e0 1b 97 4b bd 2f 10 1c 3d db f5 52 bd 95 4e 03 3d
       -0.049704652 0.03810137 -0.051503997 0.032057364
0002f0 fa f1 27 3d 36 32 9c 3b ad 3e 13 3a 18 ac 97 bc
       0.04100225 0.004766728 0.00056169444 -0.018514678
000300 96 25 6a bd 7c cd 17 3c 76 8a 30 bd a5 6a 2c 3d
       -0.05716475 0.0092653 -0.043100797 0.04209389
000310 4b d4 7c bd ad ba dd bc eb 2b 49 bc e5 3c 92 bc
       -0.061725896 -0.027066553 -0.012278537 -0.017851302
000320 95 bc 8d bb ec b9 b4 bc 76 79 4c bd 51 66 77 3c
       -0.0043254592 -0.02206131 -0.04992052 0.015100078
000330 6e 52 33 3b 3b f6 43 3d 57 76 df 3c 53 d8 24 3c
       0.0027362364 0.047842246 0.027278109 0.010061341
000340 6a df 2c 3d 42 76 83 bd 83 fa 63 3c 24 05 7e 3c
       0.04220525 -0.0641904 0.013914707 0.015504155
000350 dc 07 c8 bc 7c 79 98 3c 2e b8 2b 3c 77 c8 14 bd
       -0.02441781 0.018612616 0.010480924 -0.03632399
000360 1c dd 23 bd ae aa 65 bd 50 3d a7 bc 7a 99 5b bd
       -0.04000579 -0.056070976 -0.020414978 -0.053613164
000370 81 40 26 bd 7b 47 74 bd 6b aa da bc 3a e6 67 bd
       -0.04058886 -0.05963848 -0.02669259 -0.056616046
000380 94 e2 1d bd dc 30 29 3d f5 b7 12 3c 9b 02 12 3d
       -0.03854616 0.04130636 0.008954992 0.035647016
000390 7c d9 b3 bc ec 0d 13 3b b0 00 4c bd 70 66 20 3d
       -0.02195429 0.0022438718 -0.049805343 0.039160192
0003a0 da cd e4 3c e4 fe 45 bd 1e 18 ea 3b 59 a7 00 bb
       0.027930189 -0.048338786 0.0071439883 -0.0019630997
0003b0 5e 1b 38 3d 4a 7b 7d bd 7a 3f d1 b8 26 53 d8 bc
       0.044947974 -0.061885156 -9.97772e-05 -0.026406836
0003c0 d6 5e c6 3b 02 29 42 bd 48 4b 09 bd fd a5 c6 3c
       0.006053786 -0.04740239 -0.03351906 0.024249071
0003d0 e3 a8 7e bd d2 f4 80 bd 25 34 1a 3c 3b 4c 29 bd
       -0.06217278 -0.06296696 0.009411846 -0.041332465
0003e0 b5 91 17 bd c8 12 5e bb d9 54 e5 bc 03 4a 9a bc
       -0.03700419 -0.0033885706 -0.02799456 -0.01883412
0003f0 8a 1b 84 3a be 75 98 bc 78 28 a8 bc 4c 2d 8a 3c
       0.0010079008 -0.018610831 -0.02052711 0.016867302

encoder.3.bias f4 [64]
000000 de 93 29 3d 33 0a 71 3d 9a 5e be bc 1d 75 e9 3d
       0.041400783 0.058847617 -0.023238469 0.11399291
000010 a4 90 d8 bc 18 40 c7 3d 93 e7 38 3d 61 1f aa 3d
       -0.026436158 0.09729022 0.04514272 0.08306766
000020 46 71 ea bb b2 d6 02 3e 97 87 02 3c 28 60 fa bc
       -0.0071546165 0.12777212 0.007966897 -0.030563429
000030 c2 e8 62 3c b3 fd 18 bd de 4f 19 bd 90 65 96 3d
       0.013849439 -0.03735132 -0.037429683 0.0734359
000040 33 bf 15 3a e7 0c ab 3d 5b ec 63 3d 54 06 d7 3d
       0.000571239 0.0835207 0.055645328 0.10499254
000050 2b 15 66 3d 70 b9 ee 3a 5c 3c 21 3d 87 9b 6b bc
       0.05617253 0.0018213224 0.039364204 -0.014380342
000060 3a ed 0b bd 0f 96 22 bc 1a 9e 29 3d a7 cd a9 bb
       -0.034161784 -0.009923472 0.041410543 -0.0051819864
000070 aa d9 8e bc 7a dd a0 bc da ac 38 bd ab 3f 70 bd
       -0.017437775 -0.019636858 -0.04508672 -0.05865447
000080 af c6 d7 ba 72 70 ef bb 6c 7a 19 bd 25 7d 9a 3d
       -0.001646241 -0.0073071057 -0.037470266 0.07543401
000090 5b c2 4d 3d 52 79 94 bd 58 de 86 3c b2 a8 36 bd
       0.05023418 -0.072497025 0.016463444 -0.044594474
0000a0 b2 b0 11 bd 42 2e 5e bd bb 75 48 3d 8f c0 e4 bc
       -0.0355689 -0.054243334 0.0489404 -0.02792385
0000b0 76 92 91 3c 0f 74 3a bd 09 53 cf 3d 4b 9c e6 bc
       0.017770033 -0.04552084 0.101232596 -0.028150698
0000c0 2c 7c bd bc 5a bd a5 bc 08 b3 bc 3c 26 02 15 bb
       -0.023130499 -0.020231891 0.023034588 -0.0022736876
0000d0 31 f3 88 b9 e9 71 84 bc b8 f4 04 3d 67 a7 00 3b
       -0.00026121133 -0.016167598 0.032459944 0.001963103
0000e0 f1 52 6a 3b 61 00 8b 3d d7 81 48 bd 54 58 6f 3c
       0.0035755003 0.06787182 -0.04895195 0.014608461
0000f0 ae 75 00 bd db 5b d8 3c 1c db e3 3d a1 37 0f bd
       -0.031362228 0.026410988 0.11125776 -0.03496516

decoder.0.weight f4 [32, 64, 3, 3]
000000 c7 22 ae bc d8 48 eb bc ca 4d 28 3c 2f 33 13 bd
       -0.021256818 -0.028721258 0.010272453 -0.035937484
000010 8c 8f de 3c a6 e0 b2 bc ac b1 51 3c 6b 50 92 bc
       0.027168058 -0.021835636 0.012798708 -0.017860612
000020 6e 68 f2 3c 3d c8 d3 3d 15 9f 0b bd 0a f8 4e bb
       0.029590812 0.10340927 -0.03408726 -0.0031580948
000030 6c d6 0d 3e ec ac a0 be 31 29 28 3d b1 91 48 3d
       0.13851327 -0.3138193 0.04105491 0.048967067
000040 80 23 54 3d 9c 84 ef bd e9 e9 19 3d 23 ee d4 bc
       0.051791668 -0.11695215 0.03757659 -0.025992459
000050 37 41 d6 bc 2a 9a 15 3d be 2a cd 3b 5b 34 c7 3c
       -0.026154144 0.036523975 0.006261199 0.024316957
000060 f8 e5 29 3c 2a ab 66 3b 4f ed 19 3d 92 93 36 bd
       0.01036977 0.0035197237 0.03757983 -0.044574328
000070 3e a2 37 be 17 ce df bb 7a 34 98 3e c0 af ec 3e
       -0.17932984 -0.0068299877 0.29727536 0.46227837
000080 3f c9 8b 3e 2a 50 b1 bc 81 0d 3d 3e 6b fe 50 3b
       0.27301976 -0.02164467 0.18462183 0.0031889926
000090 ba 42 1d bd 5a 18 e2 3c 14 d2 58 3c 6a de 17 bd
       -0.038393714 0.027599502 0.01323368 -0.037077345
0000a0 c9 96 99 bb 97 75 27 3d 00 d0 84 3a 28 f2 9c 3b
       -0.0046871644 0.040883627 0.001013279 0.0047896095
0000b0 55 1b 19 3d 2b 86 57 bc fa 18 ac 3d 78 2a 48 3d
       0.03737958 -0.013154547 0.084032014 0.048868626
0000c0 93 70 4f 3d 54 38 fd 3c 87 4a 9e 3b 22 88 51 3d
       0.05064447 0.030910648 0.0048306617 0.051155217
0000d0 3e 89 ec 3c 2b ae 0f 3d 71 31 8a 3b 86 86 c3 bd
       0.028874036 0.03507821 0.0042173197 -0.09547143
0000e0 95 28 96 bc 94 43 6a 3e d7 33 3f 3f a2 a4 bd 3e
       -0.018329898 0.22877342 0.74688476 0.37039667
0000f0 54 65 33 3d 5e e5 90 bd 05 6a 92 bc b2 e3 15 bd
       0.043797806 -0.07074998 -0.01787282 -0.0365941
000100 ef bb e0 3d 34 d6 0e bd 76 8c 69 3e 19 ca a2 3e
       0.109733455 -0.03487225 0.22807488 0.31794813
000110 a4 9d 17 3e 56 0c 70 bd 98 40 0e 3e 5b ca 8e 3d
       0.14806229 -0.058605514 0.13891828 0.0697219
000120 d0 b7 0e bd b1 27 5c bc 98 fb 88 37 c6 34 ac bc
       -0.034843266 -0.013437198 1.632962e-05 -0.021021258
000130 fd 58 26 bd 0e 67 a0 bc 30 d5 03 bc d4 ee 15 3d
       -0.04061221 -0.01958039 -0.008046433 0.036604717
000140 f1 7c 1e bd be 54 33 be e3 56 e2 3c 33 3f 2b 3d
       -0.038693372 -0.17512795 0.027629321 0.04180832
000150 2c cf 0e be 68 38 56 be ad c1 25 3e fe ff a1 bc
       -0.13946217 -0.20919955 0.16187163 -0.019775387
000160 d0 f1 82 3e 1e 7e 09 3e 8b 3a 01 be a9 9b 66 be
       0.25575113 0.13427016 -0.12619989 -0.22520317
000170 3d 9c 38 bd 13 af e0 bd 83 c9 7f bc b0 3d 00 bc
       -0.045070875 -0.10970893 -0.015612009 -0.007827207
000180 f4 1b a8 bd c8 8d 43 be b9 f5 b0 bd 56 8e de bc
       -0.08208457 -0.19097054 -0.08640618 -0.02716748
000190 ad fd 13 3d 69 db 1c 3d e0 16 a9 bc 23 42 03 3d
       0.036130596 0.038295183 -0.02064079 0.032045495
0001a0 d5 c5 00 3d f8 92 0d bd e7 a7 09 3d 2c ae 22 bd
       0.031438667 -0.03456399 0.03360739 -0.039716884
0001b0 3e 0f 93 3c 30 ea 3d 3d fe 88 e8 bc b1 ac 74 3e
       0.017951604 0.046365917 -0.028385635 0.23894002
0001c0 d2 80 c7 3e 98 87 e6 bc 54 66 b6 bb 3b b1 c7 bd
       0.3896547 -0.028140828 -0.0055663977 -0.09750601
0001d0 b3 85 fb 3c 7b 33 18 bd 73 dd 9b 3c 75 2a 73 3a
       0.030703401 -0.03715847 0.019026494 0.0009276041
0001e0 79 f6 b6 bc a4 cd f6 bc 5d 5a a7 3c 2d a7 34 3c
       -0.022334324 -0.030127354 0.02042883 0.011026186
0001f0 a9 a1 8f bc 2d 36 04 bd dd be b7 bc d0 69 82 bc
       -0.01753314 -0.03227823 -0.022429878 -0.015919596
000200 df af b9 3c 4a 60 06 3d d9 ba fc bb 3c 73 1b 3d
       0.02266687 0.032806672 -0.0077127037 0.037951693
000210 09 21 11 bc 79 de d3 bc e0 ad b9 bc 3f 6f 47 3d
       -0.008857974 -0.02586292 -0.022665918 0.048690077
000220 e4 28 3a bc 68 72 90 3c ea 4b e2 3d 25 9f bf 3e
       -0.011362288 0.017632678 0.11049636 0.37426105
000230 19 7a 89 3e 7f aa 51 3d 5b f7 b2 3d b8 f3 17 3d
       0.26850966 0.05118799 0.087385856 0.037097663
000240 66 69 3a bc b0 54 16 bd c0 c2 e2 bc 1b 2d e5 3c
       -0.011377668 -0.036701858 -0.027680755 0.02797561
000250 33 9e e9 bb 9d de 1d bd 8c 75 72 bc a6 ad c9 3c
       -0.0071294545 -0.03854238 -0.014798533 0.024618935
000260 eb ee ff 3c db f8 2d 3e b7 d0 91 bc 5e 0c c4 bd
       0.031241855 0.16989462 -0.017799718 -0.09572671
000270 41 5c f4 3c ed 68 4c 3d e8 e9 bc 3d 96 95 08 3d
       0.029829146 0.049904753 0.092243016 0.03334578
000280 b5 9b 9f bd a6 19 29 bd 54 0c ef 3c e2 33 24 3e
       -0.07793371 -0.041284226 0.029180683 0.16035417
000290 e4 b6 23 3d f4 dd 97 bd 0d 0c db bd 06 bf a9 bc
       0.03996934 -0.07415381 -0.10695658 -0.02072097
0002a0 9b 60 6d ba 83 66 23 bc 01 c5 d7 bd 2a 19 51 bd
       -0.0009055228 -0.009973171 -0.105356224 -0.05104939
0002b0 c7 23 6d 3d 0c 11 4e 3c e3 24 90 3d ec bb a3 bd
       0.057895448 0.0125773065 0.070382856 -0.07994828
0002c0 99 84 05 be 2c 75 b1 3d d3 ab 0e be 17 11 3e 3b
       -0.13038863 0.08664927 -0.13932733 0.0029001886
0002d0 d2 f9 b4 bd 86 60 38 bc ab 36 16 3c c0 ef ba 3d
       -0.08836712 -0.011253482 0.009168307 0.0912776
0002e0 96 c3 3c be 50 92 62 3d 5d ec 79 bb cb f2 d0 bd
       -0.18433985 0.055315316 -0.0038135268 -0.10202559
0002f0 db 15 89 3d 27 b7 e9 3c cc be 5e 3e d4 8a c4 3c
       0.06693622 0.028529717 0.2175247 0.02399198
000300 2a 5c d1 bd 80 f2 e8 3e ab e8 85 bd 1b 95 eb bc
       -0.10222657 0.45497513 -0.065385185 -0.028757622
000310 98 8d 86 3e 3a 59 79 3d 5b e8 f9 bb d3 b1 5a 3d
       0.26279902 0.06087611 -0.007626576 0.053392243
000320 ef 7b 34 3c 92 b7 91 be 43 c5 38 bf 84 14 fd be
       0.011015876 -0.28460366 -0.72176 -0.49429715
000330 cc 07 a3 3d c0 e6 28 3c 0f 10 77 3d 24 06 be 39
       0.079604715 0.010308921 0.06031805 0.000362442
000340 79 27 a5 bc 54 fc d3 3c b5 0b 04 3b 0a 52 99 bc
       -0.020160424 0.025877155 0.002014858 -0.018715877
000350 c4 19 99 3c f2 0a 05 3c 21 61 10 bd 9b f1 d8 bc
       0.018689044 0.008120285 -0.03524888 -0.026482394
000360 d2 98 83 bc db fa 28 bb aa c2 b1 3b 3c 06 b4 bc
       -0.016064081 -0.0025784287 0.005424817 -0.021975629
000370 5f f3 01 bd 77 e7 8a bc 3f 2b 13 3d 27 7e a3 bc
       -0.031726237 -0.016956074 0.035929915 -0.019957615
000380 ff ba 25 bd 14 a4 04 3c ff d2 40 bc c3 a6 e3 ba
       -0.040461536 0.00809576 -0.011769055 -0.0017368424
000390 f3 58 20 bd 03 27 18 bd 94 49 09 bd 80 c0 62 bc
       -0.03914733 -0.03714658 -0.033517435 -0.013839841
0003a0 80 4d a2 bc 44 84 15 bd 57 c6 ad 3b d7 50 b8 3d
       -0.019812346 -0.03650309 0.005303185 0.08999794
0003b0 fd fa 2d 3d da da c2 bc 72 fd c2 be 49 29 6b be
       0.04247569 -0.023785997 -0.38083988 -0.22964968
0003c0 92 9a 13 bd f9 57 c9 3d 76 76 91 bb 0f 74 19 3e
       -0.03603608 0.098312326 -0.0044391705 0.14985679
0003d0 d8 33 12 be 0c 76 15 be db 37 ef bb aa 48 f5 be
       -0.1427759 -0.14595813 -0.0073003597 -0.47907
0003e0 87 03 9b ba ea 52 55 bd 06 f0 66 be 96 9e 04 3d
       -0.0011826613 -0.052081026 -0.22552499 0.0323778
0003f0 d4 0a 0f 3d 9f 7d e8 bc a0 0a 87 bc c3 a1 20 bc
       0.034922436 -0.028380213 -0.016484559 -0.009804192

decoder.0.bias f4 [32]
000000 4d 19 45 3d cb f4 15 3d f4 af 00 bd ed 26 e6 bc
       0.04811983 0.036610406 -0.031417802 -0.028094733
000010 ef 17 a8 3c b5 c5 00 3d 92 03 23 3c 48 78 8b 3c
       0.020519225 0.031438548 0.009949582 0.017025128
000020 f7 e4 a4 bc 39 d9 05 bd 96 03 04 3d b1 18 18 3d
       -0.02012871 -0.032677863 0.032229982 0.037132923
000030 14 66 70 3d 5c c2 44 bd 25 17 4f 3d d6 65 5e bd
       0.0586911 -0.048036918 0.05055918 -0.054296337
000040 7a 15 57 3d c4 ae e1 bc cc 86 0a bd b2 5b 33 bc
       0.052510716 -0.027549155 -0.03381996 -0.010947155
000050 2d 22 84 bd eb 8d 83 3a 3a 42 e2 bc 45 48 09 3d
       -0.06451831 0.0010036802 -0.02761947 0.033516187
000060 d5 05 82 3b ea 24 50 bd 85 27 4c 3b 35 1f 71 3d
       0.0039679804 -0.050816454 0.0031151485 0.058867652
000070 58 02 d0 bc 41 5a f2 3c 1c 52 44 bd b0 31 80 bd
       -0.025391743 0.029584052 -0.047929868 -0.06259477

decoder.3.weight f4 [1, 32, 3, 3]
000000 22 6a 2b be 89 2a 95 bd 32 f5 60 3d bd 73 db bd
       -0.16739705 -0.072835036 0.054921336 -0.10715435
000010 2f 69 cc 3c 27 8e d3 3d ba f1 43 3c b7 b0 6a 3d
       0.0249525 0.10329848 0.011959488 0.057297435
000020 d3 de b0 3d d2 df 84 bd fa 89 b6 bc 0c 06 5c 3d
       0.0863625 -0.06488003 -0.02228259 0.053716704
000030 74 6e a3 bb 39 fa 4a bd 52 31 d5 3c 15 8d 9d 3b
       -0.0049875323 -0.049555037 0.026024494 0.004808078
000040 0f 0e 36 bc e5 40 7c bd 12 a1 47 ba a5 d7 16 bc
       -0.01111175 -0.061585326 -0.0007615249 -0.009206687
000050 cd 9e 48 bd 56 d1 25 3c 0c 09 83 bb e4 0b 2a 3d
       -0.04897957 0.01012071 -0.003998881 0.041515246
000060 6d 34 d9 bc b6 f2 5b 3c 9c 06 ee 3c 07 a9 f7 3c
       -0.026514256 0.013424566 0.029055886 0.030231966
000070 e2 00 0f 3d f7 b8 1c bd f9 f0 1f 3d cf ca 18 3b
       0.03491295 -0.038262334 0.03904817 0.0023314243
000080 a0 03 30 3d f9 6a b4 3d e5 f2 a9 3d f1 dd 1c bd
       0.042972207 0.08809466 0.082982816 -0.038297597
000090 42 d8 5f 3d b8 ea 94 3d fa 31 f6 3d 24 79 76 bd
       0.0546496 0.072713315 0.12021251 -0.060174122
0000a0 e8 57 d3 bc 46 d1 8b 3d c8 9e 29 be fb f7 d2 bd
       -0.025798753 0.06827025 -0.16564476 -0.10301205
0000b0 9c f9 15 3d 23 c7 81 bd 88 b4 05 bd 30 cb ce 3c
       0.036615 -0.063368104 -0.03264287 0.025243372
0000c0 21 17 e3 3c d8 8a b7 bb 4a 53 42 bd 88 c4 3c 3d
       0.02772099 -0.0056012683 -0.047442712 0.046085864
0000d0 59 9c ab 3c 0c 02 07 39 32 08 6b 3c f3 ab c4 3c
       0.020948576 0.00012875366 0.014345216 0.024007773
0000e0 41 35 1a bd 50 f0 1f bd db 41 c0 3c 46 9d 47 bd
       -0.037648443 -0.03904754 0.023468902 -0.048733972
0000f0 ad 15 06 bd bc 27 16 bc c3 41 cb 3c bd 08 ca bb
       -0.032735515 -0.009164747 0.024811631 -0.0061655925
000100 0a 46 25 bd ac a4 53 bd ad 97 88 3c 8d ba 81 bd
       -0.040349998 -0.051670715 0.016673887 -0.0633441
000110 5e b3 ce 3a 0e c8 98 bc 12 b9 c1 3c 87 99 cd 3c
       0.0015770008 -0.018650081 0.023647819 0.025097622
000120 94 11 1a 3d b8 ae 8b bc 08 23 5d 3d a9 85 07 3d
       0.03761442 -0.017051086 0.053988487 0.033086453
000130 30 bd b5 bb df 08 ea bc 03 83 50 3c 27 85 89 3c
       -0.0055462345 -0.028568683 0.012726548 0.016787125
000140 b6 eb 94 bc af 89 2e 3d 27 45 d0 bc 34 88 36 3c
       -0.018178802 0.042611774 -0.0254236 0.011140872
000150 ea 1d 0f bc cd e1 6d bd bf 42 0d 3d 40 1e 86 bc
       -0.008735159 -0.05807667 0.034487482 -0.016371846
000160 65 86 b0 3c 3c 83 a6 bc 0d 8b a6 3c 88 11 0c 3d
       0.02154846 -0.02032625 0.020329976 0.034196407
000170 9d d9 41 3d 36 b5 04 bd d4 2c 48 bd 33 ac a8 bd
       0.047326673 -0.03239938 -0.048870876 -0.082359694
000180 ca 0a b9 bc fa 86 23 3d 7e 7e 0f bd 48 6c 62 3d
       -0.022588152 0.039923646 -0.03503274 0.055279046
000190 6a ac d0 3c ab 8d 49 3d e4 a2 fa bc c0 64 07 bc
       0.025472838 0.04920737 -0.03059525 -0.008263767
0001a0 9d 7b 92 bd b6 86 33 3d 75 73 95 bd 94 ac cf bd
       -0.071524836 0.043829642 -0.07297412 -0.101403385
0001b0 23 c3 36 3d 5a a2 1b 3d ae 85 b3 bd 86 90 44 bd
       0.04461969 0.037996627 -0.08765732 -0.04798939
0001c0 8c 99 14 bd d8 1f c0 3c 7e cb a1 bd 87 5c d8 3c
       -0.036279246 0.023452684 -0.07900141 0.026411308
0001d0 ad 8b c0 3c 68 f1 69 3c 79 7c 87 bd a6 73 78 bd
       0.023504103 0.014278747 -0.06615538 -0.060657166
0001e0 bf 3e 3d 3d e0 47 1f 3d f8 14 1e 3d 90 7d 3d 3d
       0.046202417 0.038886905 0.038594216 0.046262324
0001f0 5e ab 86 bb 63 61 ff bb b3 e9 9c 3c 4d 7d 35 3d
       -0.004109784 -0.007793592 0.019154405 0.04430895
000200 34 b9 c4 bd 79 48 75 bd 56 12 9a 3d 83 aa 2f bc
       -0.09605637 -0.05988357 0.075230286 -0.0107218055
000210 99 ca cb bd a4 a3 c1 3c 09 df 92 3d 0c 69 ec 3d
       -0.09950752 0.0236376 0.07171447 0.115434736
000220 88 f6 44 3d 13 0d 30 bd a5 b4 46 3d cc 71 96 bb
       0.048086673 -0.04298122 0.04851212 -0.0045912024
000230 43 3b fa bc 3c f1 22 3d 3b 7c e2 bd f6 6b 89 bd
       -0.030545836 0.03978084 -0.11058851 -0.06710045
000240 c7 ba 48 bd 5d 7e 65 3c 60 70 c1 3b 1f d0 72 bd
       -0.04900625 0.014007178 0.0059032887 -0.05928051
000250 60 af 04 bd 93 01 05 bd f7 b9 b1 bb 85 d0 12 bd
       -0.032393813 -0.032472204 -0.00542378 -0.03584339
000260 60 31 79 3c 4d 72 4e 3c 9a c0 f0 bc 13 63 4c bd
       0.015209526 0.012600494 -0.029388715 -0.049899172
000270 2d e5 1c 3d 18 a8 57 bc d0 a2 c4 3c cd 32 48 bd
       0.038304497 -0.013162635 0.024003416 -0.048876572
000280 fa 5d 40 3d dc 6e 8d bc 5b 93 16 3d c9 99 db bc
       0.046964623 -0.017264776 0.036761623 -0.026806729
000290 96 41 9b bd af 05 27 bd 75 f0 23 bd 64 8f 9a bd
       -0.07580869 -0.040776905 -0.04002424 -0.07546881
0002a0 28 2a 86 3d 06 97 b4 3d 92 b2 f0 3d 58 64 77 3d
       0.065510094 0.08817868 0.117528096 0.06039843
0002b0 2d b8 68 3d 4b 4a 6d bc 9d bf 14 3d a9 0d 18 3d
       0.05681627 -0.014483045 0.03631555 0.037122402
0002c0 11 66 6a 3c 13 ff 84 3d ae e4 15 3d b6 63 14 3d
       0.014306561 0.06493964 0.03659504 0.036227904
0002d0 b7 9e 9e 3d 4d 17 cc 3c ea d6 37 3d 7b 32 17 bd
       0.07745116 0.024913454 0.044882692 -0.036913376
0002e0 04 3e 12 3d e2 62 8a 3d fc 9b b4 bd 44 7e 2a bc
       0.035703674 0.06757142 -0.08818814 -0.010406081
0002f0 98 a5 ab 3d 16 5d 55 bd d8 68 42 3d 99 84 c9 bc
       0.08381194 -0.052090727 0.047463268 -0.02459936
000300 d8 17 08 3c cf 6f e6 bc 80 38 3f bc 54 e9 c8 3c
       0.008306466 -0.028129486 -0.0116711855 0.024525322
000310 aa d6 8e bb ae 1c 77 3c bb f6 3e 3d 4d 7f 0c bd
       -0.004359086 0.015082521 0.04662202 -0.03430109
000320 a0 74 3e 3d 60 77 77 3c fd b3 50 3b 3d 26 6a bd
       0.04649794 0.015104145 0.0031845563 -0.057165373
000330 35 30 03 3d 6a 20 25 bd 5b 22 b3 bc b5 ae dc 3c
       0.032028396 -0.040314116 -0.021866968 0.026938776
000340 68 54 45 bd 1c ac 96 bb b6 59 06 bc 37 f9 c2 bc
       -0.0481762 -0.0045981538 -0.0082001 -0.023800476
000350 73 43 9c bd 54 e4 44 3d d8 dd 00 bd 69 36 8b bd
       -0.076300524 0.048069313 -0.031461567 -0.06797487
000360 62 b6 1b 3c 29 8c 05 3b 6c cf c3 bc d5 ac 79 3d
       0.009503933 0.0020377731 -0.023902617 0.06095584
000370 b4 7a 30 3c de 09 3d bd 9f b7 66 bd 7d e0 68 3d
       0.010771442 -0.04615199 -0.05632746 0.056854714
000380 11 77 48 bd 2f e5 3b bb 7a b6 e7 bb d5 25 b2 3d
       -0.048941676 -0.002867054 -0.0070713134 0.08698622
000390 fc 1b 18 3d c0 06 6b 3d 33 62 4c 3d 97 d0 7d 3d
       0.037136063 0.057379484 0.049898338 0.061966505
0003a0 c9 47 ae 3c 72 08 43 3c 5b 18 51 3d c9 5e ab bd
       0.021274464 0.011903869 0.051048618 -0.08367688
0003b0 89 d6 91 bd 91 a8 89 3d 75 94 c0 3c 92 4e 70 3d
       -0.071209975 0.067216046 0.02350829 0.05866868
0003c0 55 24 28 bd 98 4e 25 bd 47 c3 32 3c 1a d7 d5 bc
       -0.041050274 -0.040358156 0.010910816 -0.026103545
0003d0 77 da 46 bc 17 6c 22 bd b2 6e 21 3c e5 0a 38 bb
       -0.012137047 -0.039653864 0.009853052 -0.0028082666
0003e0 ae f4 80 bb 15 fa 97 3c a4 0f 43 bd c2 c7 fd bc
       -0.003935418 0.018551866 -0.047622338 -0.030979041
0003f0 4c 42 03 bc 68 e5 54 3d 23 74 7a bb 86 6a fd 3c
       -0.008011412 0.05197659 -0.0038216196 0.030934583
